Model: "efficientnet-t01"
__________________________________________________________________________________________________
Layer (type)                    Output Shape         Param #     Connected to
==================================================================================================
input_1 (InputLayer)            [(None, 500, 500, 1) 0
__________________________________________________________________________________________________
stem_conv (Conv2D)              (None, 250, 250, 24) 216         input_1[0][0]
__________________________________________________________________________________________________
stem_bn (BatchNormalization)    (None, 250, 250, 24) 96          stem_conv[0][0]
__________________________________________________________________________________________________
stem_activation (Activation)    (None, 250, 250, 24) 0           stem_bn[0][0]
__________________________________________________________________________________________________
block1a_dwconv (DepthwiseConv2D (None, 250, 250, 24) 216         stem_activation[0][0]
__________________________________________________________________________________________________
block1a_bn (BatchNormalization) (None, 250, 250, 24) 96          block1a_dwconv[0][0]
__________________________________________________________________________________________________
block1a_activation (Activation) (None, 250, 250, 24) 0           block1a_bn[0][0]
__________________________________________________________________________________________________
block1a_se_squeeze (GlobalAvera (None, 24)           0           block1a_activation[0][0]
__________________________________________________________________________________________________
block1a_se_reshape (Reshape)    (None, 1, 1, 24)     0           block1a_se_squeeze[0][0]
__________________________________________________________________________________________________
block1a_se_reduce (Conv2D)      (None, 1, 1, 6)      150         block1a_se_reshape[0][0]
__________________________________________________________________________________________________
block1a_se_expand (Conv2D)      (None, 1, 1, 24)     168         block1a_se_reduce[0][0]
__________________________________________________________________________________________________
block1a_se_excite (Multiply)    (None, 250, 250, 24) 0           block1a_activation[0][0]
                                                                 block1a_se_expand[0][0]
__________________________________________________________________________________________________
block1a_project_conv (Conv2D)   (None, 250, 250, 16) 384         block1a_se_excite[0][0]
__________________________________________________________________________________________________
block1a_project_bn (BatchNormal (None, 250, 250, 16) 64          block1a_project_conv[0][0]
__________________________________________________________________________________________________
block2a_expand_conv (Conv2D)    (None, 250, 250, 64) 1024        block1a_project_bn[0][0]
__________________________________________________________________________________________________
block2a_expand_bn (BatchNormali (None, 250, 250, 64) 256         block2a_expand_conv[0][0]
__________________________________________________________________________________________________
block2a_expand_activation (Acti (None, 250, 250, 64) 0           block2a_expand_bn[0][0]
__________________________________________________________________________________________________
block2a_dwconv (DepthwiseConv2D (None, 125, 125, 64) 576         block2a_expand_activation[0][0]
__________________________________________________________________________________________________
block2a_bn (BatchNormalization) (None, 125, 125, 64) 256         block2a_dwconv[0][0]
__________________________________________________________________________________________________
block2a_activation (Activation) (None, 125, 125, 64) 0           block2a_bn[0][0]
__________________________________________________________________________________________________
block2a_se_squeeze (GlobalAvera (None, 64)           0           block2a_activation[0][0]
__________________________________________________________________________________________________
block2a_se_reshape (Reshape)    (None, 1, 1, 64)     0           block2a_se_squeeze[0][0]
__________________________________________________________________________________________________
block2a_se_reduce (Conv2D)      (None, 1, 1, 4)      260         block2a_se_reshape[0][0]
__________________________________________________________________________________________________
block2a_se_expand (Conv2D)      (None, 1, 1, 64)     320         block2a_se_reduce[0][0]
__________________________________________________________________________________________________
block2a_se_excite (Multiply)    (None, 125, 125, 64) 0           block2a_activation[0][0]
                                                                 block2a_se_expand[0][0]
__________________________________________________________________________________________________
block2a_project_conv (Conv2D)   (None, 125, 125, 16) 1024        block2a_se_excite[0][0]
__________________________________________________________________________________________________
block2a_project_bn (BatchNormal (None, 125, 125, 16) 64          block2a_project_conv[0][0]
__________________________________________________________________________________________________
block2b_expand_conv (Conv2D)    (None, 125, 125, 64) 1024        block2a_project_bn[0][0]
__________________________________________________________________________________________________
block2b_expand_bn (BatchNormali (None, 125, 125, 64) 256         block2b_expand_conv[0][0]
__________________________________________________________________________________________________
block2b_expand_activation (Acti (None, 125, 125, 64) 0           block2b_expand_bn[0][0]
__________________________________________________________________________________________________
block2b_dwconv (DepthwiseConv2D (None, 125, 125, 64) 576         block2b_expand_activation[0][0]
__________________________________________________________________________________________________
block2b_bn (BatchNormalization) (None, 125, 125, 64) 256         block2b_dwconv[0][0]
__________________________________________________________________________________________________
block2b_activation (Activation) (None, 125, 125, 64) 0           block2b_bn[0][0]
__________________________________________________________________________________________________
block2b_se_squeeze (GlobalAvera (None, 64)           0           block2b_activation[0][0]
__________________________________________________________________________________________________
block2b_se_reshape (Reshape)    (None, 1, 1, 64)     0           block2b_se_squeeze[0][0]
__________________________________________________________________________________________________
block2b_se_reduce (Conv2D)      (None, 1, 1, 4)      260         block2b_se_reshape[0][0]
__________________________________________________________________________________________________
block2b_se_expand (Conv2D)      (None, 1, 1, 64)     320         block2b_se_reduce[0][0]
__________________________________________________________________________________________________
block2b_se_excite (Multiply)    (None, 125, 125, 64) 0           block2b_activation[0][0]
                                                                 block2b_se_expand[0][0]
__________________________________________________________________________________________________
block2b_project_conv (Conv2D)   (None, 125, 125, 16) 1024        block2b_se_excite[0][0]
__________________________________________________________________________________________________
block2b_project_bn (BatchNormal (None, 125, 125, 16) 64          block2b_project_conv[0][0]
__________________________________________________________________________________________________
block2b_drop (FixedDropout)     (None, 125, 125, 16) 0           block2b_project_bn[0][0]
__________________________________________________________________________________________________
block2b_add (Add)               (None, 125, 125, 16) 0           block2b_drop[0][0]
                                                                 block2a_project_bn[0][0]
__________________________________________________________________________________________________
block3a_expand_conv (Conv2D)    (None, 125, 125, 64) 1024        block2b_add[0][0]
__________________________________________________________________________________________________
block3a_expand_bn (BatchNormali (None, 125, 125, 64) 256         block3a_expand_conv[0][0]
__________________________________________________________________________________________________
block3a_expand_activation (Acti (None, 125, 125, 64) 0           block3a_expand_bn[0][0]
__________________________________________________________________________________________________
block3a_dwconv (DepthwiseConv2D (None, 63, 63, 64)   1600        block3a_expand_activation[0][0]
__________________________________________________________________________________________________
block3a_bn (BatchNormalization) (None, 63, 63, 64)   256         block3a_dwconv[0][0]
__________________________________________________________________________________________________
block3a_activation (Activation) (None, 63, 63, 64)   0           block3a_bn[0][0]
__________________________________________________________________________________________________
block3a_se_squeeze (GlobalAvera (None, 64)           0           block3a_activation[0][0]
__________________________________________________________________________________________________
block3a_se_reshape (Reshape)    (None, 1, 1, 64)     0           block3a_se_squeeze[0][0]
__________________________________________________________________________________________________
block3a_se_reduce (Conv2D)      (None, 1, 1, 4)      260         block3a_se_reshape[0][0]
__________________________________________________________________________________________________
block3a_se_expand (Conv2D)      (None, 1, 1, 64)     320         block3a_se_reduce[0][0]
__________________________________________________________________________________________________
block3a_se_excite (Multiply)    (None, 63, 63, 64)   0           block3a_activation[0][0]
                                                                 block3a_se_expand[0][0]
__________________________________________________________________________________________________
block3a_project_conv (Conv2D)   (None, 63, 63, 32)   2048        block3a_se_excite[0][0]
__________________________________________________________________________________________________
block3a_project_bn (BatchNormal (None, 63, 63, 32)   128         block3a_project_conv[0][0]
__________________________________________________________________________________________________
block3b_expand_conv (Conv2D)    (None, 63, 63, 128)  4096        block3a_project_bn[0][0]
__________________________________________________________________________________________________
block3b_expand_bn (BatchNormali (None, 63, 63, 128)  512         block3b_expand_conv[0][0]
__________________________________________________________________________________________________
block3b_expand_activation (Acti (None, 63, 63, 128)  0           block3b_expand_bn[0][0]
__________________________________________________________________________________________________
block3b_dwconv (DepthwiseConv2D (None, 63, 63, 128)  3200        block3b_expand_activation[0][0]
__________________________________________________________________________________________________
block3b_bn (BatchNormalization) (None, 63, 63, 128)  512         block3b_dwconv[0][0]
__________________________________________________________________________________________________
block3b_activation (Activation) (None, 63, 63, 128)  0           block3b_bn[0][0]
__________________________________________________________________________________________________
block3b_se_squeeze (GlobalAvera (None, 128)          0           block3b_activation[0][0]
__________________________________________________________________________________________________
block3b_se_reshape (Reshape)    (None, 1, 1, 128)    0           block3b_se_squeeze[0][0]
__________________________________________________________________________________________________
block3b_se_reduce (Conv2D)      (None, 1, 1, 8)      1032        block3b_se_reshape[0][0]
__________________________________________________________________________________________________
block3b_se_expand (Conv2D)      (None, 1, 1, 128)    1152        block3b_se_reduce[0][0]
__________________________________________________________________________________________________
block3b_se_excite (Multiply)    (None, 63, 63, 128)  0           block3b_activation[0][0]
                                                                 block3b_se_expand[0][0]
__________________________________________________________________________________________________
block3b_project_conv (Conv2D)   (None, 63, 63, 32)   4096        block3b_se_excite[0][0]
__________________________________________________________________________________________________
block3b_project_bn (BatchNormal (None, 63, 63, 32)   128         block3b_project_conv[0][0]
__________________________________________________________________________________________________
block3b_drop (FixedDropout)     (None, 63, 63, 32)   0           block3b_project_bn[0][0]
__________________________________________________________________________________________________
block3b_add (Add)               (None, 63, 63, 32)   0           block3b_drop[0][0]
                                                                 block3a_project_bn[0][0]
__________________________________________________________________________________________________
block4a_expand_conv (Conv2D)    (None, 63, 63, 128)  4096        block3b_add[0][0]
__________________________________________________________________________________________________
block4a_expand_bn (BatchNormali (None, 63, 63, 128)  512         block4a_expand_conv[0][0]
__________________________________________________________________________________________________
block4a_expand_activation (Acti (None, 63, 63, 128)  0           block4a_expand_bn[0][0]
__________________________________________________________________________________________________
block4a_dwconv (DepthwiseConv2D (None, 32, 32, 128)  1152        block4a_expand_activation[0][0]
__________________________________________________________________________________________________
block4a_bn (BatchNormalization) (None, 32, 32, 128)  512         block4a_dwconv[0][0]
__________________________________________________________________________________________________
block4a_activation (Activation) (None, 32, 32, 128)  0           block4a_bn[0][0]
__________________________________________________________________________________________________
block4a_se_squeeze (GlobalAvera (None, 128)          0           block4a_activation[0][0]
__________________________________________________________________________________________________
block4a_se_reshape (Reshape)    (None, 1, 1, 128)    0           block4a_se_squeeze[0][0]
__________________________________________________________________________________________________
block4a_se_reduce (Conv2D)      (None, 1, 1, 8)      1032        block4a_se_reshape[0][0]
__________________________________________________________________________________________________
block4a_se_expand (Conv2D)      (None, 1, 1, 128)    1152        block4a_se_reduce[0][0]
__________________________________________________________________________________________________
block4a_se_excite (Multiply)    (None, 32, 32, 128)  0           block4a_activation[0][0]
                                                                 block4a_se_expand[0][0]
__________________________________________________________________________________________________
block4a_project_conv (Conv2D)   (None, 32, 32, 56)   7168        block4a_se_excite[0][0]
__________________________________________________________________________________________________
block4a_project_bn (BatchNormal (None, 32, 32, 56)   224         block4a_project_conv[0][0]
__________________________________________________________________________________________________
block4b_expand_conv (Conv2D)    (None, 32, 32, 224)  12544       block4a_project_bn[0][0]
__________________________________________________________________________________________________
block4b_expand_bn (BatchNormali (None, 32, 32, 224)  896         block4b_expand_conv[0][0]
__________________________________________________________________________________________________
block4b_expand_activation (Acti (None, 32, 32, 224)  0           block4b_expand_bn[0][0]
__________________________________________________________________________________________________
block4b_dwconv (DepthwiseConv2D (None, 32, 32, 224)  2016        block4b_expand_activation[0][0]
__________________________________________________________________________________________________
block4b_bn (BatchNormalization) (None, 32, 32, 224)  896         block4b_dwconv[0][0]
__________________________________________________________________________________________________
block4b_activation (Activation) (None, 32, 32, 224)  0           block4b_bn[0][0]
__________________________________________________________________________________________________
block4b_se_squeeze (GlobalAvera (None, 224)          0           block4b_activation[0][0]
__________________________________________________________________________________________________
block4b_se_reshape (Reshape)    (None, 1, 1, 224)    0           block4b_se_squeeze[0][0]
__________________________________________________________________________________________________
block4b_se_reduce (Conv2D)      (None, 1, 1, 14)     3150        block4b_se_reshape[0][0]
__________________________________________________________________________________________________
block4b_se_expand (Conv2D)      (None, 1, 1, 224)    3360        block4b_se_reduce[0][0]
__________________________________________________________________________________________________
block4b_se_excite (Multiply)    (None, 32, 32, 224)  0           block4b_activation[0][0]
                                                                 block4b_se_expand[0][0]
__________________________________________________________________________________________________
block4b_project_conv (Conv2D)   (None, 32, 32, 56)   12544       block4b_se_excite[0][0]
__________________________________________________________________________________________________
block4b_project_bn (BatchNormal (None, 32, 32, 56)   224         block4b_project_conv[0][0]
__________________________________________________________________________________________________
block4b_drop (FixedDropout)     (None, 32, 32, 56)   0           block4b_project_bn[0][0]
__________________________________________________________________________________________________
block4b_add (Add)               (None, 32, 32, 56)   0           block4b_drop[0][0]
                                                                 block4a_project_bn[0][0]
__________________________________________________________________________________________________
block4c_expand_conv (Conv2D)    (None, 32, 32, 224)  12544       block4b_add[0][0]
__________________________________________________________________________________________________
block4c_expand_bn (BatchNormali (None, 32, 32, 224)  896         block4c_expand_conv[0][0]
__________________________________________________________________________________________________
block4c_expand_activation (Acti (None, 32, 32, 224)  0           block4c_expand_bn[0][0]
__________________________________________________________________________________________________
block4c_dwconv (DepthwiseConv2D (None, 32, 32, 224)  2016        block4c_expand_activation[0][0]
__________________________________________________________________________________________________
block4c_bn (BatchNormalization) (None, 32, 32, 224)  896         block4c_dwconv[0][0]
__________________________________________________________________________________________________
block4c_activation (Activation) (None, 32, 32, 224)  0           block4c_bn[0][0]
__________________________________________________________________________________________________
block4c_se_squeeze (GlobalAvera (None, 224)          0           block4c_activation[0][0]
__________________________________________________________________________________________________
block4c_se_reshape (Reshape)    (None, 1, 1, 224)    0           block4c_se_squeeze[0][0]
__________________________________________________________________________________________________
block4c_se_reduce (Conv2D)      (None, 1, 1, 14)     3150        block4c_se_reshape[0][0]
__________________________________________________________________________________________________
block4c_se_expand (Conv2D)      (None, 1, 1, 224)    3360        block4c_se_reduce[0][0]
__________________________________________________________________________________________________
block4c_se_excite (Multiply)    (None, 32, 32, 224)  0           block4c_activation[0][0]
                                                                 block4c_se_expand[0][0]
__________________________________________________________________________________________________
block4c_project_conv (Conv2D)   (None, 32, 32, 56)   12544       block4c_se_excite[0][0]
__________________________________________________________________________________________________
block4c_project_bn (BatchNormal (None, 32, 32, 56)   224         block4c_project_conv[0][0]
__________________________________________________________________________________________________
block4c_drop (FixedDropout)     (None, 32, 32, 56)   0           block4c_project_bn[0][0]
__________________________________________________________________________________________________
block4c_add (Add)               (None, 32, 32, 56)   0           block4c_drop[0][0]
                                                                 block4b_add[0][0]
__________________________________________________________________________________________________
block5a_expand_conv (Conv2D)    (None, 32, 32, 224)  12544       block4c_add[0][0]
__________________________________________________________________________________________________
block5a_expand_bn (BatchNormali (None, 32, 32, 224)  896         block5a_expand_conv[0][0]
__________________________________________________________________________________________________
block5a_expand_activation (Acti (None, 32, 32, 224)  0           block5a_expand_bn[0][0]
__________________________________________________________________________________________________
block5a_dwconv (DepthwiseConv2D (None, 32, 32, 224)  5600        block5a_expand_activation[0][0]
__________________________________________________________________________________________________
block5a_bn (BatchNormalization) (None, 32, 32, 224)  896         block5a_dwconv[0][0]
__________________________________________________________________________________________________
block5a_activation (Activation) (None, 32, 32, 224)  0           block5a_bn[0][0]
__________________________________________________________________________________________________
block5a_se_squeeze (GlobalAvera (None, 224)          0           block5a_activation[0][0]
__________________________________________________________________________________________________
block5a_se_reshape (Reshape)    (None, 1, 1, 224)    0           block5a_se_squeeze[0][0]
__________________________________________________________________________________________________
block5a_se_reduce (Conv2D)      (None, 1, 1, 14)     3150        block5a_se_reshape[0][0]
__________________________________________________________________________________________________
block5a_se_expand (Conv2D)      (None, 1, 1, 224)    3360        block5a_se_reduce[0][0]
__________________________________________________________________________________________________
block5a_se_excite (Multiply)    (None, 32, 32, 224)  0           block5a_activation[0][0]
                                                                 block5a_se_expand[0][0]
__________________________________________________________________________________________________
block5a_project_conv (Conv2D)   (None, 32, 32, 80)   17920       block5a_se_excite[0][0]
__________________________________________________________________________________________________
block5a_project_bn (BatchNormal (None, 32, 32, 80)   320         block5a_project_conv[0][0]
__________________________________________________________________________________________________
block5b_expand_conv (Conv2D)    (None, 32, 32, 320)  25600       block5a_project_bn[0][0]
__________________________________________________________________________________________________
block5b_expand_bn (BatchNormali (None, 32, 32, 320)  1280        block5b_expand_conv[0][0]
__________________________________________________________________________________________________
block5b_expand_activation (Acti (None, 32, 32, 320)  0           block5b_expand_bn[0][0]
__________________________________________________________________________________________________
block5b_dwconv (DepthwiseConv2D (None, 32, 32, 320)  8000        block5b_expand_activation[0][0]
__________________________________________________________________________________________________
block5b_bn (BatchNormalization) (None, 32, 32, 320)  1280        block5b_dwconv[0][0]
__________________________________________________________________________________________________
block5b_activation (Activation) (None, 32, 32, 320)  0           block5b_bn[0][0]
__________________________________________________________________________________________________
block5b_se_squeeze (GlobalAvera (None, 320)          0           block5b_activation[0][0]
__________________________________________________________________________________________________
block5b_se_reshape (Reshape)    (None, 1, 1, 320)    0           block5b_se_squeeze[0][0]
__________________________________________________________________________________________________
block5b_se_reduce (Conv2D)      (None, 1, 1, 20)     6420        block5b_se_reshape[0][0]
__________________________________________________________________________________________________
block5b_se_expand (Conv2D)      (None, 1, 1, 320)    6720        block5b_se_reduce[0][0]
__________________________________________________________________________________________________
block5b_se_excite (Multiply)    (None, 32, 32, 320)  0           block5b_activation[0][0]
                                                                 block5b_se_expand[0][0]
__________________________________________________________________________________________________
block5b_project_conv (Conv2D)   (None, 32, 32, 80)   25600       block5b_se_excite[0][0]
__________________________________________________________________________________________________
block5b_project_bn (BatchNormal (None, 32, 32, 80)   320         block5b_project_conv[0][0]
__________________________________________________________________________________________________
block5b_drop (FixedDropout)     (None, 32, 32, 80)   0           block5b_project_bn[0][0]
__________________________________________________________________________________________________
block5b_add (Add)               (None, 32, 32, 80)   0           block5b_drop[0][0]
                                                                 block5a_project_bn[0][0]
__________________________________________________________________________________________________
block5c_expand_conv (Conv2D)    (None, 32, 32, 320)  25600       block5b_add[0][0]
__________________________________________________________________________________________________
block5c_expand_bn (BatchNormali (None, 32, 32, 320)  1280        block5c_expand_conv[0][0]
__________________________________________________________________________________________________
block5c_expand_activation (Acti (None, 32, 32, 320)  0           block5c_expand_bn[0][0]
__________________________________________________________________________________________________
block5c_dwconv (DepthwiseConv2D (None, 32, 32, 320)  8000        block5c_expand_activation[0][0]
__________________________________________________________________________________________________
block5c_bn (BatchNormalization) (None, 32, 32, 320)  1280        block5c_dwconv[0][0]
__________________________________________________________________________________________________
block5c_activation (Activation) (None, 32, 32, 320)  0           block5c_bn[0][0]
__________________________________________________________________________________________________
block5c_se_squeeze (GlobalAvera (None, 320)          0           block5c_activation[0][0]
__________________________________________________________________________________________________
block5c_se_reshape (Reshape)    (None, 1, 1, 320)    0           block5c_se_squeeze[0][0]
__________________________________________________________________________________________________
block5c_se_reduce (Conv2D)      (None, 1, 1, 20)     6420        block5c_se_reshape[0][0]
__________________________________________________________________________________________________
block5c_se_expand (Conv2D)      (None, 1, 1, 320)    6720        block5c_se_reduce[0][0]
__________________________________________________________________________________________________
block5c_se_excite (Multiply)    (None, 32, 32, 320)  0           block5c_activation[0][0]
                                                                 block5c_se_expand[0][0]
__________________________________________________________________________________________________
block5c_project_conv (Conv2D)   (None, 32, 32, 80)   25600       block5c_se_excite[0][0]
__________________________________________________________________________________________________
block5c_project_bn (BatchNormal (None, 32, 32, 80)   320         block5c_project_conv[0][0]
__________________________________________________________________________________________________
block5c_drop (FixedDropout)     (None, 32, 32, 80)   0           block5c_project_bn[0][0]
__________________________________________________________________________________________________
block5c_add (Add)               (None, 32, 32, 80)   0           block5c_drop[0][0]
                                                                 block5b_add[0][0]
__________________________________________________________________________________________________
block6a_expand_conv (Conv2D)    (None, 32, 32, 320)  25600       block5c_add[0][0]
__________________________________________________________________________________________________
block6a_expand_bn (BatchNormali (None, 32, 32, 320)  1280        block6a_expand_conv[0][0]
__________________________________________________________________________________________________
block6a_expand_activation (Acti (None, 32, 32, 320)  0           block6a_expand_bn[0][0]
__________________________________________________________________________________________________
block6a_dwconv (DepthwiseConv2D (None, 16, 16, 320)  8000        block6a_expand_activation[0][0]
__________________________________________________________________________________________________
block6a_bn (BatchNormalization) (None, 16, 16, 320)  1280        block6a_dwconv[0][0]
__________________________________________________________________________________________________
block6a_activation (Activation) (None, 16, 16, 320)  0           block6a_bn[0][0]
__________________________________________________________________________________________________
block6a_se_squeeze (GlobalAvera (None, 320)          0           block6a_activation[0][0]
__________________________________________________________________________________________________
block6a_se_reshape (Reshape)    (None, 1, 1, 320)    0           block6a_se_squeeze[0][0]
__________________________________________________________________________________________________
block6a_se_reduce (Conv2D)      (None, 1, 1, 20)     6420        block6a_se_reshape[0][0]
__________________________________________________________________________________________________
block6a_se_expand (Conv2D)      (None, 1, 1, 320)    6720        block6a_se_reduce[0][0]
__________________________________________________________________________________________________
block6a_se_excite (Multiply)    (None, 16, 16, 320)  0           block6a_activation[0][0]
                                                                 block6a_se_expand[0][0]
__________________________________________________________________________________________________
block6a_project_conv (Conv2D)   (None, 16, 16, 136)  43520       block6a_se_excite[0][0]
__________________________________________________________________________________________________
block6a_project_bn (BatchNormal (None, 16, 16, 136)  544         block6a_project_conv[0][0]
__________________________________________________________________________________________________
block6b_expand_conv (Conv2D)    (None, 16, 16, 544)  73984       block6a_project_bn[0][0]
__________________________________________________________________________________________________
block6b_expand_bn (BatchNormali (None, 16, 16, 544)  2176        block6b_expand_conv[0][0]
__________________________________________________________________________________________________
block6b_expand_activation (Acti (None, 16, 16, 544)  0           block6b_expand_bn[0][0]
__________________________________________________________________________________________________
block6b_dwconv (DepthwiseConv2D (None, 16, 16, 544)  13600       block6b_expand_activation[0][0]
__________________________________________________________________________________________________
block6b_bn (BatchNormalization) (None, 16, 16, 544)  2176        block6b_dwconv[0][0]
__________________________________________________________________________________________________
block6b_activation (Activation) (None, 16, 16, 544)  0           block6b_bn[0][0]
__________________________________________________________________________________________________
block6b_se_squeeze (GlobalAvera (None, 544)          0           block6b_activation[0][0]
__________________________________________________________________________________________________
block6b_se_reshape (Reshape)    (None, 1, 1, 544)    0           block6b_se_squeeze[0][0]
__________________________________________________________________________________________________
block6b_se_reduce (Conv2D)      (None, 1, 1, 34)     18530       block6b_se_reshape[0][0]
__________________________________________________________________________________________________
block6b_se_expand (Conv2D)      (None, 1, 1, 544)    19040       block6b_se_reduce[0][0]
__________________________________________________________________________________________________
block6b_se_excite (Multiply)    (None, 16, 16, 544)  0           block6b_activation[0][0]
                                                                 block6b_se_expand[0][0]
__________________________________________________________________________________________________
block6b_project_conv (Conv2D)   (None, 16, 16, 136)  73984       block6b_se_excite[0][0]
__________________________________________________________________________________________________
block6b_project_bn (BatchNormal (None, 16, 16, 136)  544         block6b_project_conv[0][0]
__________________________________________________________________________________________________
block6b_drop (FixedDropout)     (None, 16, 16, 136)  0           block6b_project_bn[0][0]
__________________________________________________________________________________________________
block6b_add (Add)               (None, 16, 16, 136)  0           block6b_drop[0][0]
                                                                 block6a_project_bn[0][0]
__________________________________________________________________________________________________
block6c_expand_conv (Conv2D)    (None, 16, 16, 544)  73984       block6b_add[0][0]
__________________________________________________________________________________________________
block6c_expand_bn (BatchNormali (None, 16, 16, 544)  2176        block6c_expand_conv[0][0]
__________________________________________________________________________________________________
block6c_expand_activation (Acti (None, 16, 16, 544)  0           block6c_expand_bn[0][0]
__________________________________________________________________________________________________
block6c_dwconv (DepthwiseConv2D (None, 16, 16, 544)  13600       block6c_expand_activation[0][0]
__________________________________________________________________________________________________
block6c_bn (BatchNormalization) (None, 16, 16, 544)  2176        block6c_dwconv[0][0]
__________________________________________________________________________________________________
block6c_activation (Activation) (None, 16, 16, 544)  0           block6c_bn[0][0]
__________________________________________________________________________________________________
block6c_se_squeeze (GlobalAvera (None, 544)          0           block6c_activation[0][0]
__________________________________________________________________________________________________
block6c_se_reshape (Reshape)    (None, 1, 1, 544)    0           block6c_se_squeeze[0][0]
__________________________________________________________________________________________________
block6c_se_reduce (Conv2D)      (None, 1, 1, 34)     18530       block6c_se_reshape[0][0]
__________________________________________________________________________________________________
block6c_se_expand (Conv2D)      (None, 1, 1, 544)    19040       block6c_se_reduce[0][0]
__________________________________________________________________________________________________
block6c_se_excite (Multiply)    (None, 16, 16, 544)  0           block6c_activation[0][0]
                                                                 block6c_se_expand[0][0]
__________________________________________________________________________________________________
block6c_project_conv (Conv2D)   (None, 16, 16, 136)  73984       block6c_se_excite[0][0]
__________________________________________________________________________________________________
block6c_project_bn (BatchNormal (None, 16, 16, 136)  544         block6c_project_conv[0][0]
__________________________________________________________________________________________________
block6c_drop (FixedDropout)     (None, 16, 16, 136)  0           block6c_project_bn[0][0]
__________________________________________________________________________________________________
block6c_add (Add)               (None, 16, 16, 136)  0           block6c_drop[0][0]
                                                                 block6b_add[0][0]
__________________________________________________________________________________________________
block7a_expand_conv (Conv2D)    (None, 16, 16, 544)  73984       block6c_add[0][0]
__________________________________________________________________________________________________
block7a_expand_bn (BatchNormali (None, 16, 16, 544)  2176        block7a_expand_conv[0][0]
__________________________________________________________________________________________________
block7a_expand_activation (Acti (None, 16, 16, 544)  0           block7a_expand_bn[0][0]
__________________________________________________________________________________________________
block7a_dwconv (DepthwiseConv2D (None, 16, 16, 544)  4896        block7a_expand_activation[0][0]
__________________________________________________________________________________________________
block7a_bn (BatchNormalization) (None, 16, 16, 544)  2176        block7a_dwconv[0][0]
__________________________________________________________________________________________________
block7a_activation (Activation) (None, 16, 16, 544)  0           block7a_bn[0][0]
__________________________________________________________________________________________________
block7a_se_squeeze (GlobalAvera (None, 544)          0           block7a_activation[0][0]
__________________________________________________________________________________________________
block7a_se_reshape (Reshape)    (None, 1, 1, 544)    0           block7a_se_squeeze[0][0]
__________________________________________________________________________________________________
block7a_se_reduce (Conv2D)      (None, 1, 1, 34)     18530       block7a_se_reshape[0][0]
__________________________________________________________________________________________________
block7a_se_expand (Conv2D)      (None, 1, 1, 544)    19040       block7a_se_reduce[0][0]
__________________________________________________________________________________________________
block7a_se_excite (Multiply)    (None, 16, 16, 544)  0           block7a_activation[0][0]
                                                                 block7a_se_expand[0][0]
__________________________________________________________________________________________________
block7a_project_conv (Conv2D)   (None, 16, 16, 224)  121856      block7a_se_excite[0][0]
__________________________________________________________________________________________________
block7a_project_bn (BatchNormal (None, 16, 16, 224)  896         block7a_project_conv[0][0]
__________________________________________________________________________________________________
top_conv (Conv2D)               (None, 16, 16, 896)  200704      block7a_project_bn[0][0]
__________________________________________________________________________________________________
top_bn (BatchNormalization)     (None, 16, 16, 896)  3584        top_conv[0][0]
__________________________________________________________________________________________________
top_activation (Activation)     (None, 16, 16, 896)  0           top_bn[0][0]
__________________________________________________________________________________________________
avg_pool (GlobalAveragePooling2 (None, 896)          0           top_activation[0][0]
__________________________________________________________________________________________________
top_dropout (Dropout)           (None, 896)          0           avg_pool[0][0]
__________________________________________________________________________________________________
probs (Dense)                   (None, 421)          377637      top_dropout[0][0]
==================================================================================================
Total params: 1,638,715
Trainable params: 1,619,675
Non-trainable params: 19,040
__________________________________________________________________________________________________
